Frequenz/lstm_model.pth (torch, 46950 bytes, 6 tensors)

lstm.weight_ih_l0 f4 [200, 1]
-0.20169252 -0.13020374 -0.24128053 0.17418684 -0.19170392 -0.19458558 -0.012408914 0.28306365
0.07304077 -0.10057674 -0.27351314 -0.05624594 0.05490864 -0.09361419 0.1525389 0.047149643
-0.02142471 -0.0928458 -0.09345756 0.136223 -0.12984832 -0.16047503 0.24002276 -0.06619273
-0.03378202 -0.036566008 -0.346498 -0.19808015 0.06785751 -0.0705776 0.07012348 -0.09503515
-0.17504966 -0.15861742 -0.1940616 0.22266108 -0.006060163 -0.064377494 -0.03223672 0.0065984284
-0.085197784 0.07461057 0.01607008 -0.0045748614 -0.075739555 -0.025866563 0.11319119 0.04794194
0.112826966 0.1251098 -0.18887685 -0.014903849 -0.24345408 0.024141537 -0.33029 -0.036982555
-0.021255415 0.27478364 -0.010608608 -0.1506147 -0.018618518 -0.1122335 -0.09306176 0.0073538492
0.2052407 -0.19533215 -0.11403814 -0.07254617 -0.23950194 -0.15182272 -0.06675277 -0.19229645
0.011007214 -0.122954935 -0.069973566 -0.15900111 -0.20912336 -0.0877421 0.024356883 0.052499965
-0.14626878 -0.14279254 -0.26148197 0.052853122 -0.26412424 0.11941585 0.36514157 -0.027853062
-0.026902612 0.06085615 -0.06537008 0.04903759 -0.040365186 -0.1856999 0.045526616 0.095087826
0.031033348 -0.1665075 -0.013931019 -0.1943242 -0.118756495 -0.0013716802 0.3357118 0.14431846
-0.16084118 0.089021444 -0.008617354 0.35730827 -0.0960267 -0.26041174 0.13873136 0.262694
0.13691613 0.06424346 -0.3530067 0.24883117 0.19012526 -0.07767427 -0.12509942 0.24998489
-0.0057618264 0.036334656 -0.33666173 -0.01724002 -0.10614051 0.19672038 -0.18517166 -0.004691883
-0.35634252 -0.108500764 -0.067506574 -0.12127056 -0.18965231 0.13078478 -0.22899862 0.17964186
-0.2674856 -0.11464299 -0.059689622 0.17369986 -0.13731676 -0.06848895 -5.452049e-05 0.13328433
-0.16903137 0.31818733 0.15956114 -0.29007295 0.031123886 0.2510879 -0.29052284 -0.18288788
-0.31958407 0.09333092 -0.13529107 -0.16972017 -0.19223022 0.047431186 -0.15280503 -0.13774817
0.0042663426 -0.06994319 -0.027013296 -0.08658325 0.29025173 -0.02284796 0.11651957 0.053150207
-0.18156014 0.04758639 -0.12998529 -0.11985138 0.0908369 -0.28959683 0.12365147 -0.279235
-0.10207251 -0.27484652 0.30665123 -0.1970867 -0.10300093 -0.018889947 -0.12159747 -0.053521402
-0.28932697 0.28448114 -0.084279 -0.09906843 -0.18139152 -0.112276286 0.10801209 0.051708624
0.00705721 0.046732493 0.13638428 -0.0379629 -0.02472796 -0.0016532361 -0.07894459 0.017554613
00000000: 7c88 4ebe 2154 05be 3e12 77be 095e 323e
00000010: 084e 44be 7141 47be c24e 4bbc b8ed 903e
00000020: 6696 953d 2efb cdbd ea09 8cbe 2562 66bd
00000030: e2e7 603d ccb8 bfbd 2833 1c3e fc1f 413d
00000040: e082 afbc f025 bebd ad66 bfbd 0b7e 0b3e
00000050: f5f6 04be 9153 24be 87c8 753e 0e90 87bd
00000060: 045f 0abd 3dc6 15bd 3068 b1be 86d5 4abe
00000070: e1f8 8a3d fd8a 90bd e69c 8f3d caa1 c2bd
00000080: 3840 33be 9b6c 22be 16b8 46be 4401 643e
00000090: 5594 c6bb 59d8 83bd a70a 04bd a137 d83b
000000a0: 2d7c aebd 6dcd 983d 67a5 833c b8e8 95bb
000000b0: 571d 9bbd 1de6 d3bc c8d0 e73d c55e 443d
000000c0: d311 e73d c91c 003e ef68 41be 462f 74bc
000000d0: 074c 79be 79c4 c53c c51b a9be 057b 17bd
000000e0: d61f aebc 71b0 8c3e bacf 2dbc bd3a 1abe
000000f0: dd85 98bc adda e5bd 2a97 bebd 8ff8 f03b
00000100: 9e2a 523e 2705 48be d48c e9bd 1693 94bd
00000110: ff3f 75be 6a77 1bbe adb5 88bd 5ce9 44be
00000120: 9a57 343c cccf fbbd 4d4e 8fbd 30d1 22be
00000130: 6f24 56be 21b2 b3bd 1688 c73c 340a 573d
00000140: 7cc7 15be 3538 12be f7e0 85be 847c 583d
00000150: 4b3b 87be 4c90 f43d d6f3 ba3e 1b2c e4bc
00000160: de62 dcbc 4c44 793d c0e0 85bd a4db 483d
00000170: f755 25bd 1d28 3ebe 1e7a 3a3d 68bd c23d
00000180: a639 fe3c f180 2abe ee3e 64bc ecfc 46be
00000190: 9b36 f3bd f3c9 b3ba 6be2 ab3e 38c8 133e
000001a0: 8db3 24be e050 b63d cd2f 0dbc 1cf1 b63e
000001b0: a6a9 c4bd b054 85be 980f 0e3e d47f 863e
000001c0: be33 0c3e 1392 833d 4bbd b4be 99cd 7e3e
000001d0: 32b0 423e b013 9fbd 101a 00be 0afc 7f3e
000001e0: b4cd bcbb a6d3 143d ed5e acbe f13a 8dbc
000001f0: 3260 d9bd 1171 493e a49d 3dbe 5ebe 99bb
00000200: 8772 b6be a635 debd e340 8abd b35c f8bd
00000210: 3734 42be 72ec 053e 9d7e 6abe 09f4 373e
00000220: dff3 88be f2c9 eabd 1b7d 74bd 60de 313e
00000230: c49c 0cbe ef43 8cbd eeac 64b8 b07b 083e
00000240: 8f16 2dbe 73e9 a23e ff63 233e 7184 94be
00000250: 85f7 fe3c 988e 803e 69bf 94be f646 3bbe
00000260: 86a0 a3be 4824 bf3d be89 0abe 20cb 2dbe
00000270: 00d8 44be 3447 423d ec78 1cbe db0d 0dbe
00000280: adcc 8b3b 603e 8fbd fd4a ddbc 8f52 b1bd
00000290: e09b 943e a52b bbbc d0a1 ee3d 08b4 593d
000002a0: e7ea 39be f2e9 423d dd1a 05be a474 f5bd
000002b0: b208 ba3d 0946 94be fb3c fd3d e4f7 8ebe
000002c0: 640b d1bd afb8 8cbe 6401 9d3e 19d1 49be
000002d0: 27f2 d2bd 17bf 9abc 1808 f9bd 4239 5bbd
000002e0: aa22 94be 83a7 913e 789a acbd 64e4 cabd
000002f0: b3be 39be 1cf1 e5bd 7135 dd3d 6ccc 533d
00000300: 2b40 e73b 926a 3f3d 52a8 0b3e fc7e 1bbd
00000310: 4a92 cabc 66b1 d8ba b4ad a1bd b1ce 8f3c

lstm.weight_hh_l0 f4 [200, 50]
-0.054497063 -0.015601919 0.07903484 0.026503297 -0.1266448 0.08748816 0.0123428665 -0.0076227123
0.121401064 0.02415929 0.02309763 0.12365544 -0.114518866 -0.07026751 0.055315427 -0.1194576
-0.1580176 0.2483678 0.042331427 -0.23041952 -0.24961989 0.2036827 0.277809 -0.18655458
0.08831306 0.015267802 -0.20505857 0.13229652 0.20569646 0.2738152 0.16908997 0.15635875
0.0971024 -0.1157456 0.094524704 -0.18246792 0.21753623 0.08268335 0.080222875 -0.1960248
0.17050494 0.1444047 -0.0179561 0.07424417 0.19169335 0.030800913 -0.15862182 0.07806883
-0.23790452 -0.16225788 0.17829789 -0.07098602 -0.07543742 -0.12836836 0.17175953 -0.11846855
0.12756428 -0.22354873 -0.017101027 -0.105457604 -0.10239153 -0.22538713 0.049625427 -0.008550622
-0.05774091 0.101548396 -0.11323174 0.01629836 0.03978378 -0.061963532 -0.06606102 -0.09177531
0.18749325 -0.061956327 0.018777288 -0.15334325 0.20479704 0.06204686 -0.00019365674 -0.051459588
0.16555181 -0.06655293 -0.07676536 0.0009064213 0.21803007 0.021681285 0.15876372 0.11360075
0.09848594 0.027847348 0.015298421 -0.10022685 -0.11553312 -0.09875723 -0.08943976 0.052894212
-0.11543593 -0.060602766 0.15316932 -0.062666945 -0.08889088 0.18304363 -0.08024413 0.0775985
0.03206242 -0.014809689 0.19375291 0.26161295 -0.14290576 0.08745844 0.03380939 0.16046582
0.20769502 0.21223973 -0.20597376 0.25551975 0.08321229 -0.14878759 -0.17389007 0.25381148
0.22052278 -0.04053002 -0.09942482 0.024777135 -0.036141686 -0.044569746 -0.08922745 -0.134314
-0.19315362 -0.15368801 -0.07158094 -0.14030784 0.16203919 0.18256646 0.028492488 0.11320556
-0.22160034 0.01786521 -0.23763266 0.093415685 0.06346877 -0.026969135 0.081486195 -0.12331043
0.015107913 -0.16945693 0.24638993 -0.06606132 0.094555765 0.26218405 -0.24469101 -0.14090036
-0.17390417 0.14926729 -0.01071734 0.12245404 -0.1662031 0.12718602 -0.12190198 -0.12054585
-0.012295425 0.0058396067 0.022669444 -0.10264539 0.062017865 -0.030488798 -0.08708756 0.12823081
-0.09290385 0.09650617 0.010682806 -0.08740798 0.0075241136 0.096096836 0.120537244 0.072513275
0.03359186 0.04570358 0.05808025 0.12374789 -0.07712928 0.09062622 0.034030333 -0.1721547
-0.092670545 0.04421136 -0.0065039443 -0.068710744 -0.053610366 0.058728654 -0.19957358 0.11455332
0.12034615 0.020263992 -0.0089633595 0.026279908 -0.080313794 0.05698573 -0.08853491 -0.022446927
-0.076312765 0.024188237 -0.06473943 -0.15213455 0.108297534 -0.1259928 0.09003799 -0.12460149
-0.017124012 -0.03627008 -0.024412604 -0.16232409 -0.056699477 -0.10871373 -0.07157845 0.111626334
-0.02600597 0.13156931 0.050315678 -0.020009289 -0.07664973 0.0996154 0.06283441 -0.053106446
-0.044974256 0.01787878 0.089810655 0.11195755 -0.00504793 0.13864538 0.08115355 0.14771914
-0.031244854 0.11160581 0.13309054 0.073835924 0.11913208 0.061928976 0.10823808 -0.08508089
-0.020130277 0.14360783 -0.07015561 0.09809785 -0.01728932 -0.06262554 0.048417557 0.080397904
0.07931804 -0.13195099 0.06709867 0.11850775 -0.18259269 -0.3101796 0.020588363 0.028380482
00000000: 5038 5fbd 319f 7fbc 05dd a13d 711d d93c
00000010: 2daf 01be fe2c b33d bc39 4a3c f2c7 f9bb
00000020: 1fa1 f83d b4e9 c53c 3e37 bd3c 103f fd3d
00000030: de88 eabd 6ae8 8fbd 6e92 623d 30a6 f4bd
00000040: 5ecf 21be 2154 7e3e b863 2d3d 18f3 6bbe
00000050: 5b9c 7fbe 3392 503e fb3c 8e3e 2a08 3fbe
00000060: 7add b43d ce25 7a3c e0fa 51be bd78 073e
00000070: 18a2 523e 8231 8c3e ec25 2d3e 821c 203e
00000080: a0dd c63d 070c edbd 2b96 c13d dfd8 3abe
00000090: d1c1 5e3e e355 a93d e44b a43d baba 48be
000000a0: d998 2e3e d3de 133e ac18 93bc 540d 983d
000000b0: 434b 443e 3252 fc3c c26d 22be 8de2 9f3d
000000c0: 3e9d 73be ee26 26be b993 363e 1e61 91bd
000000d0: ef7e 9abd ff72 03be bbe1 2f3e a49f f2bd
000000e0: 36a0 023e f5e9 64be 7417 8cbc 28fa d7bd
000000f0: a7b2 d1bd e2cb 66be 0844 4b3d e817 0cbc
00000100: bc81 6cbd 9bf8 cf3d 0be6 e7bd 2384 853c
00000110: 51f4 223d 79cd 7dbd 004b 87bd b2f4 bbbd
00000120: 3bfe 3f3e ebc5 7dbd d4d2 993c 0306 1dbe
00000130: 51b6 513e d924 7e3d 5610 4bb9 4ac7 52bd
00000140: 6a86 293e e74c 88bd 2837 9dbd e79c 6d3a
00000150: 4643 5f3e f39c b13c f592 223e 83a7 e83d
00000160: ffb2 c93d 1f20 e43c 3aa6 7a3c bc43 cdbd
00000170: a19c ecbd 3b41 cabd 312c b7bd 9aa7 583d
00000180: ac69 ecbd 9b3a 78bd 6bd8 1c3e 8757 80bd
00000190: 6c0c b6bd ca6f 3b3e 0957 a4bd f6eb 9e3d
000001a0: e253 033d 56a4 72bc 2a67 463e 22f2 853e
000001b0: e355 12be 691d b33d b77b 0a3d 2751 243e
000001c0: 01ae 543e 5f55 593e c9ea 52be 7cd3 823e
000001d0: 356b aa3d c65b 18be 3d10 32be 94f3 813e
000001e0: b9d0 613e ce02 26bd 3d9f cbbd 6bf9 ca3c
000001f0: 4e09 14bd c48e 36bd e2bc b6bd 9c89 09be
00000200: 10ca 45be 6460 1dbe 0799 92bd dcac 0fbe
00000210: 9aed 253e b4f2 3a3e 1469 e93c 51d8 e73d
00000220: 33eb 62be 105a 923c fa55 73be b950 bf3d
00000230: eafb 813d 60ee dcbc 3ce2 a63d 2e8a fcbd
00000240: 2e87 773c 1e86 2dbe a44d 7c3e 284b 87bd
00000250: 74a6 c13d fd3c 863e 4890 7abe 2f48 10be
00000260: ef13 32be 86d9 183e c897 2fbc 2fc9 fa3d
00000270: 2531 2abe 0d3d 023e bfa7 f9bd bee0 f6bd
00000280: c072 49bc 2c5a bf3b 45b5 b93c bf37 d2bd
00000290: 7206 7e3d a5c3 f9bc f65a b2bd f04e 033e
000002a0: 6044 bebd 07a5 c53d f006 2f3c f402 b3bd
000002b0: d78c f63b 6bce c43d 3bdc f63d d781 943d
000002c0: 9e97 093d ad33 3b3d 8ee5 6d3d 896f fd3d
000002d0: f5f5 9dbd 3d9a b93d 6463 0b3d 5249 30be
000002e0: 0eca bdbd f916 353d 0a1f d5bb 38b8 8cbd
000002f0: 8b96 5bbd 758d 703d 045d 4cbe ee9a ea3d
00000300: 0b78 f63d ac00 a63c 0edb 12bc f648 d73c
00000310: 8f7b a4bd de69 693d ca51 b5bd 9ee2 b7bc
00000320: de49 9cbd 6926 c63c 1b96 84bd 29c9 1bbe
00000330: 19cb dd3d 4204 01be d665 b83d 112f ffbd
00000340: a847 8cbc ef8f 14bd f1fc c7bc 4938 26be
00000350: b63d 68bd 4ea5 debd b997 92bd 599c e43d
00000360: 790a d5bc 1bba 063e d017 4e3d 85ea a3bc
00000370: 89fa 9cbd 2903 cc3d 54af 803d 2586 59bd
00000380: ed36 38bd 8576 923c a6ee b73d 004a e53d
00000390: 1b69 a5bb 0ef9 0d3e d533 a63d b043 173e
000003a0: 35f5 ffbc 9691 e43d e348 083e 4a37 973d
000003b0: 85fb f33d 3da9 7d3d edab dd3d e43e aebd
000003c0: 40e8 a4bc ee0d 133e bfad 8fbd 87e7 c83d
000003d0: 55a2 8dbc d241 80bd 7d51 463d a8a7 a43d
000003e0: 7f71 a23d 291e 07be 076b 893d 31b4 f23d
000003f0: 94f9 3abe dccf 9ebe eda8 a83c 2f7e e83c

lstm.bias_ih_l0 f4 [200]
-0.026442716 -0.07599121 0.2286355 -0.19001797 -0.09137838 0.15453847 -0.123138644 0.13877074
0.0073577305 -0.011776951 0.10370205 0.10997125 0.033759087 -0.13938953 -0.029018091 0.21666557
-0.055473574 0.10051975 0.008465791 -0.06273994 0.06303351 -0.022681015 0.22303843 -0.14915766
0.06507028 -0.1411199 -0.20310937 -0.26106668 0.13437113 -0.043816622 -0.024104096 0.15754609
-0.0044082087 0.13109097 -0.023381101 0.044137143 -0.13495047 -0.17228563 -0.028363733 0.010441395
-0.0316823 -0.09355008 -0.12427382 -0.03709175 -0.019629672 0.09595506 -0.065811045 0.16004296
0.18422543 0.0010955896 -0.1257187 0.13809666 0.056528993 -0.07316644 0.0046300376 0.049762946
0.12199132 0.028118674 -0.1428858 -0.088238746 0.08610857 0.029451251 0.16446367 -0.2248875
-0.10324559 -0.27656028 0.039806224 -0.08788224 -0.03661567 -0.21235676 0.02811869 -0.2039426
-0.18632062 0.069382414 -0.1051615 -0.008418103 -0.074961744 -0.20876479 -0.17235872 0.15003587
0.018502235 0.13199621 -0.026620649 -0.06726679 0.1450379 0.049136546 0.14111988 -0.1019712
-0.023968402 -0.049503446 0.038639452 -0.0757189 0.05653818 -0.078988664 0.00497052 0.12746562
0.077444345 0.018100342 0.061551638 -0.087185815 0.071949005 0.18078652 -0.012739464 -0.098652475
0.106414765 -0.0868943 0.21092531 -0.10838174 -0.096577406 -0.004884627 -0.1979986 -0.026320167
0.075106986 -0.052623592 0.083465375 -0.14517896 0.15471916 -0.032583382 -0.09013316 0.010825399
0.24805826 -0.07452927 0.17046618 0.15895124 -0.12736374 -0.061214462 -0.02515852 -0.014854105
0.074507706 -0.25578824 0.011417718 -0.05498294 0.043427624 0.25266263 0.060251288 0.19193555
-0.036557157 -0.054148532 -0.17176615 0.06794843 0.15612128 -0.14573225 -0.049079277 -0.091790244
-0.14680704 -0.08341576 0.049140073 0.16663477 0.18983074 0.02279682 -0.039031744 0.092340045
0.010261123 -0.10474183 0.050460573 0.10440486 -0.07990165 -0.00128955 -0.15429159 0.06875381
-0.11546584 0.005230454 -0.015611791 -0.23315318 0.14397699 0.06868167 -0.13890198 -0.09481621
-0.16030598 -0.1980037 0.09379539 -0.12086859 -0.02561247 0.06839372 -0.106241696 0.09105493
-0.10628435 -0.115328126 -0.054885108 0.08308054 0.081701845 0.012244866 0.061572418 -0.08744836
0.09486046 0.02838522 -0.01660471 -0.14975059 -0.0961269 -0.06958492 0.01020694 -0.13983645
0.013795683 -0.0860241 0.044866625 0.03923622 0.06920104 0.038561497 -0.026927333 -0.16692355
00000000: 659e d8bc 48a1 9bbd 6d1f 6a3e 1294 42be
00000010: 9724 bbbd 553f 1e3e 1d30 fcbd eb19 0e3e
00000020: 1e19 f13b 1df4 40bc be61 d43d 9b38 e13d
00000030: f846 0a3d 21bc 0ebe 59b7 edbc 94dd 5d3e
00000040: 4238 63bd 4cdd cd3d 1ab4 0a3c cc7d 80bd
00000050: b717 813d 89cd b9bc 3064 643e c9bc 18be
00000060: 9143 853d bc81 10be e7fb 4fbe 88aa 85be
00000070: 9698 093e 0f79 33bd f475 c5bc c353 213e
00000080: bc72 90bb b63c 063e b989 bfbc 26c9 343d
00000090: 7530 0abe a56b 30be 0f5b e8bc 6312 2b3c
000000a0: 4dc5 01bd 2f97 bfbd 4683 febd 85ed 17bd
000000b0: 68ce a0bc 1684 c43d f1c7 86bd 4de2 233e
000000c0: 97a5 3c3e e399 8f3a 67bc 00be 3669 0d3e
000000d0: f28a 673d 49d8 95bd 92b7 973b 3bd4 4b3d
000000e0: 96d6 f93d 2259 e63c a850 12be 84b6 b4bd
000000f0: b159 b03d c043 f13c 2a69 283e e948 66be
00000100: 6d72 d3bd 4f99 8dbe da0b 233d 9bfb b3bd
00000110: 50fa 15bd 0d74 59be 2b59 e63c 54d6 50be
00000120: d5ca 3ebe 5e18 8e3d ea5e d7bd 15ec 09bc
00000130: 8b85 99bd 70c6 55be ce7e 30be 01a3 193e
00000140: 0092 973c 042a 073e 8c13 dabc 2cc3 89bd
00000150: d184 143e 6743 493d bb81 103e 47d6 d0bd
00000160: 6259 c4bc 20c4 4abd 6744 1e3d 8312 9bbd
00000170: 9494 673d cfc4 a1bd bedf a23b 5986 023e
00000180: 249b 9e3d 2b47 943c 921d 7c3d 7a8e b2bd
00000190: 005a 933d 1a20 393e 2fb9 50bc 4f0a cabd
000001a0: fcef d93d a4f5 b1bd cefc 573e 3ff7 ddbd
000001b0: 60ca c5bd 390f a0bb 25c0 4abe 649d d7bc
000001c0: b1d1 993d d68b 57bd e5ef aa3d cba9 14be
000001d0: b36e 1e3e 2776 05bd bc97 b8bd 045d 313c
000001e0: fc02 7e3e cda2 98bd b08e 2e3e 1dc4 223e
000001f0: a46b 02be 04bc 7abd 3e19 cebc a25e 73bc
00000200: 7f97 983d adf6 82be 6111 3b3c cb35 61bd
00000210: 2ae1 313d ff5c 813e 0eca 763d c18a 443e
00000220: f5bc 15bd daca 5dbd 77e3 2fbe 8c28 8b3d
00000230: 42de 1f3e d63a 15be 5a07 49bd 86fc bbbd
00000240: 9654 16be e2d5 aabd 1a47 493d 4ea2 2a3e
00000250: fd62 423e 66c0 ba3c c0df 1fbd c71c bd3d
00000260: 451e 283c e282 d6bd bfaf 4e3d 37d2 d53d
00000270: 7aa3 a3bd 1e06 a9ba 9dfe 1dbe ccce 8c3d
00000280: 5b79 ecbd 3a64 ab3b 99c8 7fbc b5bf 6ebe
00000290: b46e 133e faa8 8c3d 523c 0ebe 002f c2bd
000002a0: 4027 24be 7bc1 4abe cc17 c03d f489 f7bd
000002b0: 3ed1 d1bc 0212 8c3d 3f95 d9bd 027b ba3d
000002c0: 9cab d9bd 2731 ecbd 35cf 60bd 2126 aa3d
000002d0: 4c53 a73d b19e 483c 5c33 7c3d 2018 b3bd
000002e0: 3346 c23d 1f88 e83c 9a06 88bc 3858 19be
000002f0: 2ede c4bd 8a82 8ebd 023b 273c 4931 0fbe
00000300: 4a07 623c 672d b0bd 11c6 373d 29b6 203d
00000310: 46b9 8d3d a9f2 1d3d b696 dcbc 02ee 2abe

lstm.bias_hh_l0 f4 [200]
-0.21610758 0.053482473 0.087955005 -0.09694573 -0.07784234 0.12302441 0.11567893 0.08907815
-0.12946673 -0.08371489 0.038481954 -0.08915751 0.115245275 -0.015388098 0.0414595 0.022342483
0.01269505 0.12994829 -0.2032451 -0.09082872 0.06085078 -0.04463213 0.18488455 -0.11353696
0.11255067 -0.06954553 -0.13009559 -0.038783178 0.029302092 -0.062948175 -0.13920352 0.080923565
-0.036126528 -0.022104856 0.04933752 -0.035431184 0.08778342 -0.0038255006 -0.01323826 0.038809117
-0.16597532 -0.022827907 0.05686586 0.11671963 0.14892362 0.20740548 0.080421105 0.083909094
-0.022560207 0.005438976 -0.05577559 -0.03433519 -0.06787446 -0.116019726 0.06846741 0.07225634
0.102642365 0.1676957 -0.08304215 -0.13088836 0.124641895 -0.16934703 0.013422991 -0.046823423
-0.20225205 -0.29335874 0.09688753 -0.1202518 -0.1542358 -0.19705138 0.055104785 -0.03315875
-0.16011684 -0.074339956 0.09856884 -0.13114372 -0.04980795 -0.1959017 -0.10075217 0.040963367
-0.02595875 0.13979562 -0.060370497 -0.046432313 0.07366797 0.11754606 0.26901278 -0.18772295
0.014420683 -0.077805266 0.0971074 -0.037050728 0.08666467 -0.11200506 0.06608449 0.15967055
0.049737837 0.012344534 -0.020105857 -0.16275322 -0.12112577 0.1388017 -0.09604475 -0.0945013
0.11977113 -0.2376984 -0.014477245 -0.07255082 -0.013850719 0.19614008 -0.16631304 0.009146631
0.15825576 -0.0035517595 0.0851193 -0.1483737 -0.041987035 -0.13191897 0.0346946 -0.10939007
0.20927173 -0.06493116 0.008661985 -0.027742745 -0.075140856 0.03747501 0.0654104 0.077808805
0.06999746 -0.26947027 -0.135037 -0.23557997 0.18429056 0.2488405 0.20837016 0.07583268
-0.073078595 0.040861286 -0.17718044 0.14292939 0.021627188 0.03355293 0.1554216 -0.14003879
-0.07637118 0.0008167467 0.14780019 0.05486917 0.14179711 0.05699305 -0.097086795 0.06585532
0.23043771 -0.051557206 0.057866614 0.15135647 -0.12548625 0.13493791 -0.10823905 0.02677269
0.08512763 -0.113013536 -0.09917521 -0.084848724 -0.042477503 0.020827383 0.020232586 0.04738263
-0.11493673 -0.25319132 0.05183786 -0.00033090316 -0.007572053 -0.0226678 0.08117746 -0.06294259
-0.16549867 -0.26396522 0.12673578 0.036098056 -0.02441451 0.13210557 0.101852074 0.061517213
0.1386579 -0.051004954 -0.16614945 0.07680598 -0.039702974 0.10404414 -0.0689889 -0.11438865
0.01853308 0.1236532 -0.109432876 0.12366122 -0.01581275 0.0012484175 0.016317822 -0.21446483
00000000: 4e4b 5dbe 7010 5b3d c121 b43d 7c8b c6bd
00000010: ce6b 9fbd 39f4 fb3d 13e9 ec3d 9b6e b63d
00000020: ed92 04be b672 abbd 419f 1d3d 3698 b6bd
00000030: b705 ec3d 5c1e 7cbc 70d1 293d 9507 b73c
00000040: e6fe 4f3c 2a11 053e 7c1f 50be 6804 babd
00000050: ab3e 793d 2ed0 36bd 6052 3d3e 1186 e8bd
00000060: f780 e63d e36d 8ebd c737 05be 1cdb 1ebd
00000070: f10a f03c f9ea 80bd 5e8b 0ebe 41bb a53d
00000080: 69f9 13bd 3e15 b5bc 2416 4a3d 4a20 11bd
00000090: cbc7 b33d 40b5 7abb 49e5 58bc 4ff6 1e3d
000000a0: 6ff5 29be 9701 bbbc 2dec 683d b40a ef3d
000000b0: 6f7f 183e 1a62 543e d2b3 a43d 88d8 ab3d
000000c0: 2fd0 b8bc 7039 b23b f274 64bd 0ea3 0cbd
000000d0: c401 8bbd c09b edbd a438 8c3d 22fb 933d
000000e0: 2936 d23d 6cb8 2b3e 0112 aabd 9907 06be
000000f0: 4044 ff3d 4f69 2dbe 1bec 5b3c ebc9 3fbd
00000100: 291b 4fbe 1e33 96be f86c c63d 9346 f6bd
00000110: fdef 1dbe d6c7 49be 8eb5 613d 78d1 07bd
00000120: abf5 23be 8c3f 98bd 76de c93d 8a4a 06be
00000130: 6c03 4cbd 759a 48be 2757 cebd 34c9 273d
00000140: 72a7 d4bc 9526 0f3e 0e47 77bd cf2f 3ebd
00000150: 3cdf 963d fdbb f03d 0bbc 893e 723a 40be
00000160: ba44 6c3c 5e58 9fbd 3fe0 c63d 81c2 17bd
00000170: 3f7d b13d e962 e5bd 4e57 873d ad80 233e
00000180: e7b9 4b3d ba40 4a3c 0ab5 a4bc c8a8 26be
00000190: ca10 f8bd 0822 0e3e 1cb3 c4bd e689 c1bd
000001a0: 914a f53d 3667 73be f731 6dbc 8695 94bd
000001b0: 20ee 62bc f2d8 483e f74d 2abe c0db 153c
000001c0: cc0d 223e a3c4 68bb 0753 ae3d 46ef 17be
000001d0: 99fa 2bbd c415 07be ed1b 0e3d e707 e0bd
000001e0: 544b 563e a1fa 84bd 00eb 0d3c c144 e3bc
000001f0: 73e3 99bd 657f 193d e3f5 853d 395a 9f3d
00000200: d45a 8f3d 02f8 89be 2447 0abe e03b 71be
00000210: aab6 3c3e 0bd0 7e3e fd5e 553e 2a4e 9b3d
00000220: 3baa 95bd 2a5e 273d ca6e 35be 155c 123e
00000230: 802b b13c cc6e 093d d726 1f3e 5466 0fbe
00000240: 7e68 9cbd f11a 563a ef58 173e 7fbe 603d
00000250: 4333 113e 8b71 693d 71d5 c6bd 27df 863d
00000260: ddf7 6b3e a62d 53bd 8b05 6d3d 31fd 1a3e
00000270: 787f 00be 2a2d 0a3e 6fac ddbd 6652 db3c
00000280: 6557 ae3d a473 e7bd 5f1c cbbd 2bc5 adbd
00000290: e4fc 2dbd 309e aa3c cfbe a53c 4a14 423d
000002a0: f363 ebbd 4ba2 81be f053 543d 127d adb9
000002b0: fc1e f8bb d2b1 b9bc 5e40 a63d 0be8 80bd
000002c0: 7c78 29be 7326 87be 06c7 013e 8edb 133d
000002d0: f000 c8bc af46 073e d297 d03d 79f9 7b3d
000002e0: 56fc 0d3e 92ea 50bd 1523 2abe 744c 9d3d
000002f0: 969f 22bd 1815 d53d 0d4a 8dbd 9944 eabd
00000300: b0d2 973c e43d fd3d 581e e0bd 1842 fd3d
00000310: be89 81bc f1a1 a33a f4ac 853c ab9c 5bbe

linear.weight f4 [10, 50]
-0.023415053 -0.009542881 0.26760793 -0.107364155 -0.11374699 0.036434118 0.043620843 0.2634597
0.0042473217 -0.11519013 0.060153384 0.2090478 0.005328532 0.039972086 -0.34003583 0.23598059
0.10872152 -0.10747473 0.06718405 0.046958577 0.14920004 0.021140618 -0.41685122 -0.0033541613
-0.1526215 0.11034713 -0.18693005 -0.023969537 -0.3738826 -0.14218977 -0.18943396 -0.08827969
0.004680394 0.16445248 -0.021743922 0.1768269 -0.20604219 0.022782467 -0.083496496 0.19331141
0.09445401 -0.14231408 -0.076915376 0.07949924 -0.16475007 0.05838411 0.1645408 -0.15859072
0.16792682 0.20667587 -0.023025561 0.0953013 0.21551736 0.1510526 -0.096905105 -0.09328141
-0.10413165 0.11887798 -0.07100146 -0.0027722316 -0.08497637 0.30051214 0.15316406 -0.076668836
-0.39499396 0.15470769 0.052895725 -0.007177784 -0.016464492 0.031941857 0.054046854 -0.13361484
-0.26772395 -0.15091923 -0.08886245 0.17360783 -0.12529764 0.013696386 -0.23470797 0.017380325
-0.018672107 -0.055260237 -0.06539602 -0.06967738 -0.18876782 0.12429336 0.07510475 -0.116350405
-0.05458773 -0.009472029 0.035031784 -0.089233555 0.055081364 -0.03647369 -0.10282874 0.30748907
0.1436199 -0.04610696 0.087925114 0.07349994 0.024663957 0.17568056 0.39377567 0.16500881
0.07685225 -0.109065525 0.01765216 0.013808433 -0.04110958 0.018142862 -0.02310324 0.17799509
0.08303968 -0.012604725 -0.076716416 0.18490557 0.1082381 -0.020059992 0.005339329 0.21020156
-0.04328444 -0.087841555 -0.348201 -0.037513427 -0.109912835 0.27831337 0.086422905 -0.20937459
-0.22928421 -0.06337327 -0.07807113 -0.1924691 -0.0082055675 0.1573046 -0.06892848 0.26171407
0.07260612 -0.19816643 0.0240924 0.21053837 0.08047611 0.0077253627 -0.19988663 -0.043272328
-0.04338436 0.2683444 0.053265348 0.041341506 -0.062741354 0.14023253 0.092525735 0.16612488
0.17424937 0.053463247 0.047369864 0.041980088 0.120911755 -0.11420145 -0.03311226 0.0025771346
-0.18210852 -0.06871916 0.09476667 -0.035607997 -0.18811625 0.10866002 0.11481892 -0.18389553
-0.03709783 0.031279404 -0.029285628 -0.14140795 -0.09113999 -0.030080063 -0.17723104 -0.029964954
-0.073598936 -0.21851093 -0.058489226 -0.035197236 -0.0061624534 -0.14447977 0.08023736 0.21140079
-0.025847182 0.21140605 -0.006361634 -0.0975954 -0.023480693 0.24077354 0.1590052 -0.019410208
-0.16172926 -0.12935768 -0.2242037 0.2665326 -0.03022291 -0.06825196 0.1868291 0.19595565
0.056560688 0.22651964 0.20756608 -0.005506148 -0.028629143 -0.07159656 0.13601607 -0.22976081
-0.063273184 0.16324136 -0.15031256 0.04435219 0.18906407 -0.1424288 0.018812599 -0.00040027697
0.06948292 -0.13358217 -0.03940728 0.122815184 0.06318744 -0.06864604 -0.018748552 0.08785482
0.02368634 -0.049495816 0.017298788 0.05777532 -0.11590538 -0.024486084 -0.005367165 -0.18935966
0.0033448383 0.1785119 0.24246557 0.10069942 0.15472093 -0.062466852 -0.17784642 0.15905051
-0.00592292 0.018053051 -0.108012766 -0.13506028 -0.014970259 0.20141084 0.16830027 -0.03596201
-0.036944546 0.106501445 0.16214545 0.09351967 -0.017436715 -0.04338019 0.16661008 -0.08569711
00000000: edd0 bfbc be59 1cbc e803 893e bde1 dbbd
00000010: 2ff4 e8bd f13b 153d c5ab 323d 31e4 863e
00000020: 1e2d 8b3b cee8 ebbd 6563 763d a010 563e
00000030: f79a ae3b c5b9 233d 2d19 aebe e5a4 713e
00000040: 63a9 de3d b61b dcbd cb97 893d a357 403d
00000050: e5c7 183e 172f ad3c 866d d5be 7dd1 5bbb
00000060: cf48 1cbe adfd e13d 976a 3fbe c35b c4bc
00000070: 8a6d bfbe 329a 11be fafa 41be fbcb b4bd
00000080: fe5d 993b 3b66 283e 4f20 b2bc 1c12 353e
00000090: b9fc 52be 4ca2 ba3c 3600 abbd 6df3 453e
000000a0: 1b71 c13d c8ba 11be cf85 9dbd 7fd0 a23d
000000b0: 3eb4 28be 2d24 6f3d 627d 283e 9b65 22be
000000c0: 02f5 2b3e d7a2 533e 1aa0 bcbc 542d c33d
000000d0: 95b0 5c3e 88ad 1a3e 2f76 c6bd 530a bfbd
000000e0: f942 d5bd 4c76 f33d 3769 91bd 54ae 35bb
000000f0: 1708 aebd badc 993e 0ad7 1c3e 8d04 9dbd
00000100: a63c cabe b16b 1e3e 30a9 583d 9e33 ebbb
00000110: 8be0 86bc 77d5 023d 3c60 5d3d 54d2 08be
00000120: 1d13 89be 928a 1abe 84fd b5bd 40c6 313e
00000130: 064e 00be ce66 603c 4957 70be 2f61 8e3c
00000140: 3ff6 98bc 8f58 62bd 59ee 85bd 04b3 8ebd
00000150: 5a4c 41be 848d fe3d 85d0 993d 1f49 eebd
00000160: 6297 5fbd 9230 1bbc 7d7d 0f3d 15c0 b6bd
00000170: ff9c 613d 7065 15bd e097 d2bd 356f 9d3e
00000180: 1811 133e a7da 3cbd 1512 b43d 2387 963d
00000190: 110c ca3c 9be5 333e f79c c93e 12f8 283e
000001a0: b664 9d3d bf5d dfbd 439b 903c c43c 623c
000001b0: 8562 28bd 57a0 943c 0243 bdbc 5844 363e
000001c0: b510 aa3d 0c84 4ebc 7f1d 9dbd e357 3d3e
000001d0: f0ab dd3d da54 a4bc 8af5 ae3b 143f 573e
000001e0: 064b 31bd 46e6 b3bd 6747 b2be aea7 19bd
000001f0: fb19 e1bd 177f 8e3e 7efe b03d 4b66 56be
00000200: 7bc9 6abe d8c9 81bd c2e3 9fbd 9f16 45be
00000210: a570 06bc 7514 213e 602a 8dbd 63ff 853e
00000220: 84b2 943d 24ec 4abe 6d5d c53c 5f97 573e
00000230: a9d0 a43d 0a25 fd3b 15af 4cbe 533e 31bd
00000240: ccb3 31bd 7064 893e c42c 5a3d b655 293d
00000250: 8a7e 80bd 1e99 0f3e 227e bd3d a41c 2a3e
00000260: 6d6e 323e 47fc 5a3d e706 423d 50f3 2b3d
00000270: 95a0 f73d 73e2 e9bd b9a0 07bd 25e5 283b
00000280: a87a 3abe a2bc 8cbd 0715 c23d b1d9 11bd
00000290: 8ca1 40be 2589 de3d 2f26 eb3d 1c4f 3cbe
000002a0: e5f3 17bd d51e 003d 6ae8 efbc 3fcd 10be
000002b0: 9aa7 babd 776a f6bc 0e7c 35be 1079 f5bc
000002c0: 0abb 96bd 54c1 5fbe 6692 6fbd fa2a 10bd
000002d0: 68ee c9bb 81f2 13be 7c53 a43d 7379 583e
000002e0: 78bd d3bc d47a 583e 4175 d0bb 19e0 c7bd
000002f0: 955a c0bc 578d 763e 42d2 223e 2802 9fbc
00000300: 5b9c 25be 5776 04be a895 65be f676 883e
00000310: 0996 f7bc afc7 8bbd 2150 3f3e 99a8 483e
00000320: 2eac 673d c4f4 673e 348c 543e eb6c b4bb
00000330: aa87 eabc 38a1 92bd cc47 0b3e 6b46 6bbe
00000340: 5f95 81bd be28 273e 89eb 19be a4aa 353d
00000350: 039a 413e dbd8 11be e11c 9a3c 44dc d1b9
00000360: 104d 8e3d c4c9 08be 8769 21bd 8786 fb3d
00000370: 6b68 813d 4c96 8cbd 9096 99bc 3aed b33d
00000380: db09 c23c 20bc 4abd 30b6 8d3c d0a5 6c3d
00000390: cd5f edbd 0a97 c8bc 0bdf afbb 80e7 41be
000003a0: 1335 5b3b d3cb 363e e548 783e 7f3b ce3d
000003b0: 2a6f 1e3e 3edd 7fbd 5f1d 36be 23de 223e
000003c0: 0e15 c2bb fee3 933c cc35 ddbd 3e4d 0abe
000003d0: d145 75bc a53e 4e3e e856 2c3e e74c 13bd
000003e0: 2a53 17bd 6e1d da3d 7509 263e 3e87 bf3d
000003f0: 71d7 8ebc 6daf 31bd d59b 2a3e f781 afbd

linear.bias f4 [10]
-0.01590912 0.16212127 0.13388951 0.028490365 0.036107816 0.084923126 0.03847576 0.034881607
0.14828704 0.16460261
00000000: d853 82bc 1e03 263e 551a 093e a064 e93c
00000010: cae5 133d 2dec ad3d c298 1d3d 04e0 0e3d
00000020: 8fd8 173e 968d 283e
